…
    (frontend): Frontend()
    (logmel): LogMel(sr=16000, n_fft=512, n_mels=80, fmin=0, fmax=8000.0, htk=False)
  )
  (specaug): SpecAug(
    (time_warp): TimeWarp(window=5, mode=bicubic)
    (freq_mask): MaskAlongAxis(mask_width_range=[0, 27], num_mask=2, axis=freq)
    (time_mask): MaskAlongAxisVariableMaxWidth(mask_width_ratio_range=[0.0, 0.05], num_mask=10, axis=time)
  )
  (normalize): GlobalMVN(stats_file=exp_uma_mamba_0617/asr_stats_raw_zh_char_sp/train/feats_stats.npz, norm_means=True, norm_vars=True)
  (encoder): MambaEncoder(
    (embed): CausalConv2dSubsampling(
      (subsample1): Sequential(
        (0): Conv2d(1, 256, kernel_size=(3, 3), stride=(2, 2), padding=(2, 0))
        (1): ReLU()
      )
      (subsample2): Sequential(
        (0): Conv2d(256, 256, kernel_size=(3, 3), stride=(2, 2), padding=(2, 0))
        (1): ReLU()
      )
      (out): Sequential(
        (0): Linear(in_features=4864, out_features=256, bias=True)
        (1): Dropout(p=0.1, inplace=False)
      )
    )
    (norm_before_mamba): LayerNorm((256,), eps=1e-12, elementwise_affine=True)
    (layers): ModuleList(
      (0): Block(
        (mixer): Mamba(
          (in_proj): Linear(in_features=256, out_features=2048, bias=False)
          (conv1d): Conv1d(1024, 1024, kernel_size=(4,), stride=(1,), padding=(3,), groups=1024)
          (act): SiLU()
          (x_proj): Linear(in_features=1024, out_features=48, bias=False)
          (dt_proj): Linear(in_features=16, out_features=1024, bias=True)
          (out_proj): Linear(in_features=1024, out_features=256, bias=False)
        )
        (norm): RMSNorm()
      )
      (1): Block(
        (mixer): Mamba(
          (in_proj): Linear(in_features=256, out_features=2048, bias=False)
          (conv1d): Conv1d(1024, 1024, kernel_size=(4,), stride=(1,), padding=(3,), groups=1024)
          (act): SiLU()
          (x_proj): Linear(in_features=1024, out_features=48, bias=False)
          (dt_proj): Linear(in_features=16, out_features=1024, bias=True)
          (out_proj): Linear(in_features=1024, out_features=256, bias=False)
        )
        (norm): RMSNorm()
      )
      (2): Block(
        (mixer): Mamba(
          (in_proj): Linear(in_features=256, out_features=2048, bias=False)
          (conv1d): Conv1d(1024, 1024, kernel_size=(4,), stride=(1,), padding=(3,), groups=1024)
          (act): SiLU()
          (x_proj): Linear(in_features=1024, out_features=48, bias=False)
          (dt_proj): Linear(in_features=16, out_features=1024, bias=True)
          (out_proj): Linear(in_features=1024, out_features=256, bias=False)
        )
        (norm): RMSNorm()
      )
      (3): Block(
        (mixer): Mamba(
          (in_proj): Linear(in_features=256, out_features=2048, bias=False)
          (conv1d): Conv1d(1024, 1024, kernel_size=(4,), stride=(1,), padding=(3,), groups=1024)
          (act): SiLU()
          (x_proj): Linear(in_features=1024, out_features=48, bias=False)
          (dt_proj): Linear(in_features=16, out_features=1024, bias=True)
          (out_proj): Linear(in_features=1024, out_features=256, bias=False)
        )
        (norm): RMSNorm()
      )
      (4): Block(
        (mixer): Mamba(
          (in_proj): Linear(in_features=256, out_features=2048, bias=False)
          (conv1d): Conv1d(1024, 1024, kernel_size=(4,), stride=(1,), padding=(3,), groups=1024)
          (act): SiLU()
          (x_proj): Linear(in_features=1024, out_features=48, bias=False)
          (dt_proj): Linear(in_features=16, out_features=1024, bias=True)
          (out_proj): Linear(in_features=1024, out_features=256, bias=False)
        )
        (norm): RMSNorm()
      )
      (5): Block(
        (mixer): Mamba(
          (in_proj): Linear(in_features=256, out_features=2048, bias=False)
          (conv1d): Conv1d(1024, 1024, kernel_size=(4,), stride=(1,), padding=(3,), groups=1024)
          (act): SiLU()
          (x_proj): Linear(in_features=1024, out_features=48, bias=False)
          (dt_proj): Linear(in_features=16, out_features=1024, bias=True)
          (out_proj): Linear(in_features=1024, out_features=256, bias=False)
        )
        (norm): RMSNorm()
      )
      (6): Block(
        (mixer): Mamba(
          (in_proj): Linear(in_features=256, out_features=2048, bias=False)
          (conv1d): Conv1d(1024, 1024, kernel_size=(4,), stride=(1,), padding=(3,), groups=1024)
          (act): SiLU()
          (x_proj): Linear(in_features=1024, out_features=48, bias=False)
          (dt_proj): Linear(in_features=16, out_features=1024, bias=True)
          (out_proj): Linear(in_features=1024, out_features=256, bias=False)
        )
        (norm): RMSNorm()
      )
      (7): Block(
        (mixer): Mamba(
          (in_proj): Linear(in_features=256, out_features=2048, bias=False)
          (conv1d): Conv1d(1024, 1024, kernel_size=(4,), stride=(1,), padding=(3,), groups=1024)
          (act): SiLU()
          (x_proj): Linear(in_features=1024, out_features=48, bias=False)
          (dt_proj): Linear(in_features=16, out_features=1024, bias=True)
          (out_proj): Linear(in_features=1024, out_features=256, bias=False)
        )
        (norm): RMSNorm()
      )
      (8): Block(
        (mixer): Mamba(
          (in_proj): Linear(in_features=256, out_features=2048, bias=False)
          (conv1d): Conv1d(1024, 1024, kernel_size=(4,), stride=(1,), padding=(3,), groups=1024)
          (act): SiLU()
          (x_proj): Linear(in_features=1024, out_features=48, bias=False)
          (dt_proj): Linear(in_features=16, out_features=1024, bias=True)
          (out_proj): Linear(in_features=1024, out_features=256, bias=False)
        )
        (norm): RMSNorm()
      )
      (9): Block(
        (mixer): Mamba(
          (in_proj): Linear(in_features=256, out_features=2048, bias=False)
          (conv1d): Conv1d(1024, 1024, kernel_size=(4,), stride=(1,), padding=(3,), groups=1024)
          (act): SiLU()
          (x_proj): Linear(in_features=1024, out_features=48, bias=False)
          (dt_proj): Linear(in_features=16, out_features=1024, bias=True)
          (out_proj): Linear(in_features=1024, out_features=256, bias=False)
        )
        (norm): RMSNorm()
      )
      (10): Block(
        (mixer): Mamba(
          (in_proj): Linear(in_features=256, out_features=2048, bias=False)
          (conv1d): Conv1d(1024, 1024, kernel_size=(4,), stride=(1,), padding=(3,), groups=1024)
          (act): SiLU()
          (x_proj): Linear(in_features=1024, out_features=48, bias=False)
          (dt_proj): Linear(in_features=16, out_features=1024, bias=True)
          (out_proj): Linear(in_features=1024, out_features=256, bias=False)
        )
        (norm): RMSNorm()
      )
      (11): Block(
        (mixer): Mamba(
          (in_proj): Linear(in_features=256, out_features=2048, bias=False)
          (conv1d): Conv1d(1024, 1024, kernel_size=(4,), stride=(1,), padding=(3,), groups=1024)
          (act): SiLU()
          (x_proj): Linear(in_features=1024, out_features=48, bias=False)
          (dt_proj): Linear(in_features=16, out_features=1024, bias=True)
          (out_proj): Linear(in_features=1024, out_features=256, bias=False)
        )
        (norm): RMSNorm()
      )
      (12): Block(
        (mixer): Mamba(
          (in_proj): Linear(in_features=256, out_features=2048, bias=False)
          (conv1d): Conv1d(1024, 1024, kernel_size=(4,), stride=(1,), padding=(3,), groups=1024)
          (act): SiLU()
          (x_proj): Linear(in_features=1024, out_features=48, bias=False)
          (dt_proj): Linear(in_features=16, out_features=1024, bias=True)
          (out_proj): Linear(in_features=1024, out_features=256, bias=False)
        )
        (norm): RMSNorm()
      )
      (13): Block(
        (mixer): Mamba(
          (in_proj): Linear(in_features=256, out_features=2048, bias=False)
          (conv1d): Conv1d(1024, 1024, kernel_size=(4,), stride=(1,), padding=(3,), groups=1024)
          (act): SiLU()
          (x_proj): Linear(in_features=1024, out_features=48, bias=False)
          (dt_proj): Linear(in_features=16, out_features=1024, bias=True)
          (out_proj): Linear(in_features=1024, out_features=256, bias=False)
        )
        (norm): RMSNorm()
      )
      (14): Block(
        (mixer): Mamba(
          (in_proj): Linear(in_features=256, out_features=2048, bias=False)
          (conv1d): Conv1d(1024, 1024, kernel_size=(4,), stride=(1,), padding=(3,), groups=1024)
          (act): SiLU()
          (x_proj): Linear(in_features=1024, out_features=48, bias=False)
          (dt_proj): Linear(in_features=16, out_features=1024, bias=True)
          (out_proj): Linear(in_features=1024, out_features=256, bias=False)
        )
        (norm): RMSNorm()
      )
      (15): Block(
        (mixer): Mamba(
          (in_proj): Linear(in_features=256, out_features=2048, bias=False)
          (conv1d): Conv1d(1024, 1024, kernel_size=(4,), stride=(1,), padding=(3,), groups=1024)
          (act): SiLU()
          (x_proj): Linear(in_features=1024, out_features=48, bias=False)
          (dt_proj): Linear(in_features=16, out_features=1024, bias=True)
          (out_proj): Linear(in_features=1024, out_features=256, bias=False)
        )
        (norm): RMSNorm()
      )
      (16): Block(
        (mixer): Mamba(
          (in_proj): Linear(in_features=256, out_features=2048, bias=False)
          (conv1d): Conv1d(1024, 1024, kernel_size=(4,), stride=(1,), padding=(3,), groups=1024)
          (act): SiLU()
          (x_proj): Linear(in_features=1024, out_features=48, bias=False)
          (dt_proj): Linear(in_features=16, out_features=1024, bias=True)
          (out_proj): Linear(in_features=1024, out_features=256, bias=False)
        )
        (norm): RMSNorm()
      )
      (17): Block(
        (mixer): Mamba(
          (in_proj): Linear(in_features=256, out_features=2048, bias=False)
          (conv1d): Conv1d(1024, 1024, kernel_size=(4,), stride=(1,), padding=(3,), groups=1024)
          (act): SiLU()
          (x_proj): Linear(in_features=1024, out_features=48, bias=False)
          (dt_proj): Linear(in_features=16, out_features=1024, bias=True)
          (out_proj): Linear(in_features=1024, out_features=256, bias=False)
        )
        (norm): RMSNorm()
      )
      (18): Block(
        (mixer): Mamba(
          (in_proj): Linear(in_features=256, out_features=2048, bias=False)
          (conv1d): Conv1d(1024, 1024, kernel_size=(4,), stride=(1,), padding=(3,), groups=1024)
          (act): SiLU()
          (x_proj): Linear(in_features=1024, out_features=48, bias=False)
          (dt_proj): Linear(in_features=16, out_features=1024, bias=True)
          (out_proj): Linear(in_features=1024, out_features=256, bias=False)
        )
        (norm): RMSNorm()
      )
      (19): Block(
        (mixer): Mamba(
          (in_proj): Linear(in_features=256, out_features=2048, bias=False)
          (conv1d): Conv1d(1024, 1024, kernel_size=(4,), stride=(1,), padding=(3,), groups=1024)
          (act): SiLU()
          (x_proj): Linear(in_features=1024, out_features=48, bias=False)
          (dt_proj): Linear(in_features=16, out_features=1024, bias=True)
          (out_proj): Linear(in_features=1024, out_features=256, bias=False)
        )
        (norm): RMSNorm()
      )
      (20): Block(
        (mixer): Mamba(
          (in_proj): Linear(in_features=256, out_features=2048, bias=False)
          (conv1d): Conv1d(1024, 1024, kernel_size=(4,), stride=(1,), padding=(3,), groups=1024)
          (act): SiLU()
          (x_proj): Linear(in_features=1024, out_features=48, bias=False)
          (dt_proj): Linear(in_features=16, out_features=1024, bias=True)
          (out_proj): Linear(in_features=1024, out_features=256, bias=False)
        )
        (norm): RMSNorm()
      )
      (21): Block(
        (mixer): Mamba(
          (in_proj): Linear(in_features=256, out_features=2048, bias=False)
          (conv1d): Conv1d(1024, 1024, kernel_size=(4,), stride=(1,), padding=(3,), groups=1024)
          (act): SiLU()
          (x_proj): Linear(in_features=1024, out_features=48, bias=False)
          (dt_proj): Linear(in_features=16, out_features=1024, bias=True)
          (out_proj): Linear(in_features=1024, out_features=256, bias=False)
        )
        (norm): RMSNorm()
      )
      (22): Block(
        (mixer): Mamba(
          (in_proj): Linear(in_features=256, out_features=2048, bias=False)
          (conv1d): Conv1d(1024, 1024, kernel_size=(4,), stride=(1,), padding=(3,), groups=1024)
          (act): SiLU()
          (x_proj): Linear(in_features=1024, out_features=48, bias=False)
          (dt_proj): Linear(in_features=16, out_features=1024, bias=True)
          (out_proj): Linear(in_features=1024, out_features=256, bias=False)
        )
        (norm): RMSNorm()
      )
      (23): Block(
        (mixer): Mamba(
          (in_proj): Linear(in_features=256, out_features=2048, bias=False)
          (conv1d): Conv1d(1024, 1024, kernel_size=(4,), stride=(1,), padding=(3,), groups=1024)
          (act): SiLU()
          (x_proj): Linear(in_features=1024, out_features=48, bias=False)
          (dt_proj): Linear(in_features=16, out_features=1024, bias=True)
          (out_proj): Linear(in_features=1024, out_features=256, bias=False)
        )
        (norm): RMSNorm()
      )
      (24): Block(
        (mixer): Mamba(
          (in_proj): Linear(in_features=256, out_features=2048, bias=False)
          (conv1d): Conv1d(1024, 1024, kernel_size=(4,), stride=(1,), padding=(3,), groups=1024)
          (act): SiLU()
          (x_proj): Linear(in_features=1024, out_features=48, bias=False)
          (dt_proj): Linear(in_features=16, out_features=1024, bias=True)
          (out_proj): Linear(in_features=1024, out_features=256, bias=False)
        )
        (norm): RMSNorm()
      )
      (25): Block(
        (mixer): Mamba(
          (in_proj): Linear(in_features=256, out_features=2048, bias=False)
          (conv1d): Conv1d(1024, 1024, kernel_size=(4,), stride=(1,), padding=(3,), groups=1024)
          (act): SiLU()
          (x_proj): Linear(in_features=1024, out_features=48, bias=False)
          (dt_proj): Linear(in_features=16, out_features=1024, bias=True)
          (out_proj): Linear(in_features=1024, out_features=256, bias=False)
        )
        (norm): RMSNorm()
      )
      (26): Block(
        (mixer): Mamba(
          (in_proj): Linear(in_features=256, out_features=2048, bias=False)
          (conv1d): Conv1d(1024, 1024, kernel_size=(4,), stride=(1,), padding=(3,), groups=1024)
          (act): SiLU()
          (x_proj): Linear(in_features=1024, out_features=48, bias=False)
          (dt_proj): Linear(in_features=16, out_features=1024, bias=True)
          (out_proj): Linear(in_features=1024, out_features=256, bias=False)
        )
        (norm): RMSNorm()
      )
      (27): Block(
        (mixer): Mamba(
          (in_proj): Linear(in_features=256, out_features=2048, bias=False)
          (conv1d): Conv1d(1024, 1024, kernel_size=(4,), stride=(1,), padding=(3,), groups=1024)
          (act): SiLU()
          (x_proj): Linear(in_features=1024, out_features=48, bias=False)
          (dt_proj): Linear(in_features=16, out_features=1024, bias=True)
          (out_proj): Linear(in_features=1024, out_features=256, bias=False)
        )
        (norm): RMSNorm()
      )
      (28): Block(
        (mixer): Mamba(
          (in_proj): Linear(in_features=256, out_features=2048, bias=False)
          (conv1d): Conv1d(1024, 1024, kernel_size=(4,), stride=(1,), padding=(3,), groups=1024)
          (act): SiLU()
          (x_proj): Linear(in_features=1024, out_features=48, bias=False)
          (dt_proj): Linear(in_features=16, out_features=1024, bias=True)
          (out_proj): Linear(in_features=1024, out_features=256, bias=False)
        )
        (norm): RMSNorm()
      )
      (29): Block(
        (mixer): Mamba(
          (in_proj): Linear(in_features=256, out_features=2048, bias=False)
          (conv1d): Conv1d(1024, 1024, kernel_size=(4,), stride=(1,), padding=(3,), groups=1024)
          (act): SiLU()
          (x_proj): Linear(in_features=1024, out_features=48, bias=False)
          (dt_proj): Linear(in_features=16, out_features=1024, bias=True)
          (out_proj): Linear(in_features=1024, out_features=256, bias=False)
        )
        (norm): RMSNorm()
      )
      (30): Block(
        (mixer): Mamba(
          (in_proj): Linear(in_features=256, out_features=2048, bias=False)
          (conv1d): Conv1d(1024, 1024, kernel_size=(4,), stride=(1,), padding=(3,), groups=1024)
          (act): SiLU()
          (x_proj): Linear(in_features=1024, out_features=48, bias=False)
          (dt_proj): Linear(in_features=16, out_features=1024, bias=True)
          (out_proj): Linear(in_features=1024, out_features=256, bias=False)
        )
        (norm): RMSNorm()
      )
      (31): Block(
        (mixer): Mamba(
          (in_proj): Linear(in_features=256, out_features=2048, bias=False)
          (conv1d): Conv1d(1024, 1024, kernel_size=(4,), stride=(1,), padding=(3,), groups=1024)
          (act): SiLU()
          (x_proj): Linear(in_features=1024, out_features=48, bias=False)
          (dt_proj): Linear(in_features=16, out_features=1024, bias=True)
          (out_proj): Linear(in_features=1024, out_features=256, bias=False)
        )
        (norm): RMSNorm()
      )
      (32): Block(
        (mixer): Mamba(
          (in_proj): Linear(in_features=256, out_features=2048, bias=False)
          (conv1d): Conv1d(1024, 1024, kernel_size=(4,), stride=(1,), padding=(3,), groups=1024)
          (act): SiLU()
          (x_proj): Linear(in_features=1024, out_features=48, bias=False)
          (dt_proj): Linear(in_features=16, out_features=1024, bias=True)
          (out_proj): Linear(in_features=1024, out_features=256, bias=False)
        )
        (norm): RMSNorm()
      )
      (33): Block(
        (mixer): Mamba(
          (in_proj): Linear(in_features=256, out_features=2048, bias=False)
          (conv1d): Conv1d(1024, 1024, kernel_size=(4,), stride=(1,), padding=(3,), groups=1024)
          (act): SiLU()
          (x_proj): Linear(in_features=1024, out_features=48, bias=False)
          (dt_proj): Linear(in_features=16, out_features=1024, bias=True)
          (out_proj): Linear(in_features=1024, out_features=256, bias=False)
        )
        (norm): RMSNorm()
      )
      (34): Block(
        (mixer): Mamba(
          (in_proj): Linear(in_features=256, out_features=2048, bias=False)
          (conv1d): Conv1d(1024, 1024, kernel_size=(4,), stride=(1,), padding=(3,), groups=1024)
          (act): SiLU()
          (x_proj): Linear(in_features=1024, out_features=48, bias=False)
          (dt_proj): Linear(in_features=16, out_features=1024, bias=True)
          (out_proj): Linear(in_features=1024, out_features=256, bias=False)
        )
        (norm): RMSNorm()
      )
      (35): Block(
        (mixer): Mamba(
          (in_proj): Linear(in_features=256, out_features=2048, bias=False)
          (conv1d): Conv1d(1024, 1024, kernel_size=(4,), stride=(1,), padding=(3,), groups=1024)
          (act): SiLU()
          (x_proj): Linear(in_features=1024, out_features=48, bias=False)
          (dt_proj): Linear(in_features=16, out_features=1024, bias=True)
          (out_proj): Linear(in_features=1024, out_features=256, bias=False)
        )
        (norm): RMSNorm()
      )
    )
    (norm_f): RMSNorm()
    (lookahead_cnn): Conv1d(256, 256, kernel_size=(17,), stride=(1,), padding=(8,))
    (activation): Swish()
    (lookahead_norm): LayerNorm((256,), eps=1e-12, elementwise_affine=True)
    (dropout): Dropout(p=0.1, inplace=False)
  )
  (uma): UMA(
    (linear_sigmoid): Sequential(
      (0): Linear(in_features=256, out_features=1, bias=True)
      (1): Sigmoid()
    )
    (after_norm): LayerNorm((256,), eps=1e-12, elementwise_affine=True)
  )
  (decoder): UnimodalAttentionDecoder(
    (embed): Sequential(
      (0): Linear(in_features=256, out_features=256, bias=True)
      (1): LayerNorm((256,), eps=1e-12, elementwise_affine=True)
      (2): Dropout(p=0.1, inplace=False)
      (3): Swish()
      (4): PositionalEncoding(
        (dropout): Dropout(p=0.1, inplace=False)
      )
    )
    (encoders): MultiSequential(
      (0): EncoderLayer(
        (self_attn): StreamingMultiHeadedAttention(
          (linear_q): Linear(in_features=256, out_features=256, bias=True)
          (linear_k): Linear(in_features=256, out_features=256, bias=True)
          (linear_v): Linear(in_features=256, out_features=256, bias=True)
          (linear_out): Linear(in_features=256, out_features=256, bias=True)
          (dropout): Dropout(p=0.0, inplace=False)
        )
        (feed_forward): PositionwiseFeedForward(
          (w_1): Linear(in_features=256, out_features=2048, bias=True)
          (w_2): Linear(in_features=2048, out_features=256, bias=True)
          (dropout): Dropout(p=0.1, inplace=False)
          (activation): ReLU()
        )
        (norm1): LayerNorm((256,), eps=1e-12, elementwise_affine=True)
        (norm2): LayerNorm((256,), eps=1e-12, elementwise_affine=True)
        (dropout): Dropout(p=0.1, inplace=False)
      )
      (1): EncoderLayer(
        (self_attn): StreamingMultiHeadedAttention(
          (linear_q): Linear(in_features=256, out_features=256, bias=True)
          (linear_k): Linear(in_features=256, out_features=256, bias=True)
          (linear_v): Linear(in_features=256, out_features=256, bias=True)
          (linear_out): Linear(in_features=256, out_features=256, bias=True)
          (dropout): Dropout(p=0.0, inplace=False)
        )
        (feed_forward): PositionwiseFeedForward(
          (w_1): Linear(in_features=256, out_features=2048, bias=True)
          (w_2): Linear(in_features=2048, out_features=256, bias=True)
          (dropout): Dropout(p=0.1, inplace=False)
          (activation): ReLU()
        )
        (norm1): LayerNorm((256,), eps=1e-12, elementwise_affine=True)
        (norm2): LayerNorm((256,), eps=1e-12, elementwise_affine=True)
        (dropout): Dropout(p=0.1, inplace=False)
      )
      (2): EncoderLayer(
        (self_attn): StreamingMultiHeadedAttention(
          (linear_q): Linear(in_features=256, out_features=256, bias=True)
          (linear_k): Linear(in_features=256, out_features=256, bias=True)
          (linear_v): Linear(in_features=256, out_features=256, bias=True)
          (linear_out): Linear(in_features=256, out_features=256, bias=True)
          (dropout): Dropout(p=0.0, inplace=False)
        )
        (feed_forward): PositionwiseFeedForward(
          (w_1): Linear(in_features=256, out_features=2048, bias=True)
          (w_2): Linear(in_features=2048, out_features=256, bias=True)
          (dropout): Dropout(p=0.1, inplace=False)
          (activation): ReLU()
        )
        (norm1): LayerNorm((256,), eps=1e-12, elementwise_affine=True)
        (norm2): LayerNorm((256,), eps=1e-12, elementwise_affine=True)
        (dropout): Dropout(p=0.1, inplace=False)
      )
      (3): EncoderLayer(
        (self_attn): StreamingMultiHeadedAttention(
          (linear_q): Linear(in_features=256, out_features=256, bias=True)
          (linear_k): Linear(in_features=256, out_features=256, bias=True)
          (linear_v): Linear(in_features=256, out_features=256, bias=True)
          (linear_out): Linear(in_features=256, out_features=256, bias=True)
          (dropout): Dropout(p=0.0, inplace=False)
        )
        (feed_forward): PositionwiseFeedForward(
          (w_1): Linear(in_features=256, out_features=2048, bias=True)
          (w_2): Linear(in_features=2048, out_features=256, bias=True)
          (dropout): Dropout(p=0.1, inplace=False)
          (activation): ReLU()
        )
        (norm1): LayerNorm((256,), eps=1e-12, elementwise_affine=True)
        (norm2): LayerNorm((256,), eps=1e-12, elementwise_affine=True)
        (dropout): Dropout(p=0.1, inplace=False)
      )
      (4): EncoderLayer(
        (self_attn): StreamingMultiHeadedAttention(
          (linear_q): Linear(in_features=256, out_features=256, bias=True)
          (linear_k): Linear(in_features=256, out_features=256, bias=True)
          (linear_v): Linear(in_features=256, out_features=256, bias=True)
          (linear_out): Linear(in_features=256, out_features=256, bias=True)
          (dropout): Dropout(p=0.0, inplace=False)
        )
        (feed_forward): PositionwiseFeedForward(
          (w_1): Linear(in_features=256, out_features=2048, bias=True)
          (w_2): Linear(in_features=2048, out_features=256, bias=True)
          (dropout): Dropout(p=0.1, inplace=False)
          (activation): ReLU()
        )
        (norm1): LayerNorm((256,), eps=1e-12, elementwise_affine=True)
        (norm2): LayerNorm((256,), eps=1e-12, elementwise_affine=True)
        (dropout): Dropout(p=0.1, inplace=False)
      )
      (5): EncoderLayer(
        (self_attn): StreamingMultiHeadedAttention(
          (linear_q): Linear(in_features=256, out_features=256, bias=True)
          (linear_k): Linear(in_features=256, out_features=256, bias=True)
          (linear_v): Linear(in_features=256, out_features=256, bias=True)
          (linear_out): Linear(in_features=256, out_features=256, bias=True)
          (dropout): Dropout(p=0.0, inplace=False)
        )
        (feed_forward): PositionwiseFeedForward(
          (w_1): Linear(in_features=256, out_features=2048, bias=True)
          (w_2): Linear(in_features=2048, out_features=256, bias=True)
          (dropout): Dropout(p=0.1, inplace=False)
          (activation): ReLU()
        )
        (norm1): LayerNorm((256,), eps=1e-12, elementwise_affine=True)
        (norm2): LayerNorm((256,), eps=1e-12, elementwise_affine=True)
        (dropout): Dropout(p=0.1, inplace=False)
      )
    )
    (after_norm): LayerNorm((256,), eps=1e-12, elementwise_affine=True)
  )
  (criterion_att): LabelSmoothingLoss(
    (criterion): KLDivLoss()
  )
  (ctc): CTC(
    (ctc_lo): Linear(in_features=256, out_features=4233, bias=True)
    (ctc_loss): CTCLoss()
  )
)

Model summary:
    Class Name: UAMASRModel
    Total Number of model parameters: 43.53 M
    Number of trainable parameters: 43.53 M (100.0%)
    Size: 174.11 MB
    Type: torch.float32
[alab02] 2024-08-03 18:08:29,280 (abs_task:1206) INFO: Optimizer:
AdamW (
Parameter Group 0
    amsgrad: False
    betas: (0.9, 0.999)
…
